…
Data scaling threshold (motor imagery): 2.0
	Resultant outlier ratio: 2.815 %
# of train samples:	 468024
# of test samples:	 156235
********************* Dataset Configuration End *********************

********************* Model Configuration Start *********************
==========================================================================================
Layer (type:depth-idx)                   Output Shape              Param #
==========================================================================================
Cascade_CNN_RNN                          --                        --
├─Conv2d: 1-1                            [10, 16, 10, 11]          144
├─ScaleReLU: 1-2                         [10, 16, 10, 11]          --
├─Conv2d: 1-3                            [10, 32, 10, 11]          4,608
├─ScaleReLU: 1-4                         [10, 32, 10, 11]          --
├─Linear: 1-5                            [10, 256]                 901,120
├─ScaleReLU: 1-6                         [10, 256]                 --
├─Dropout: 1-7                           [10, 256]                 --
├─HardMGUCell: 1-8                       [1, 64]                   --
│    └─ScaleHardsigmoid: 2-1             [1, 64]                   --
│    └─Hardtanh: 2-2                     [1, 64]                   --
├─HardMGUCell: 1-9                       [1, 64]                   (recursive)
│    └─ScaleHardsigmoid: 2-3             [1, 64]                   --
│    └─Hardtanh: 2-4                     [1, 64]                   --
├─HardMGUCell: 1-10                      [1, 64]                   (recursive)
│    └─ScaleHardsigmoid: 2-5             [1, 64]                   --
│    └─Hardtanh: 2-6                     [1, 64]                   --
├─HardMGUCell: 1-11                      [1, 64]                   (recursive)
│    └─ScaleHardsigmoid: 2-7             [1, 64]                   --
│    └─Hardtanh: 2-8                     [1, 64]                   --
├─HardMGUCell: 1-12                      [1, 64]                   (recursive)
│    └─ScaleHardsigmoid: 2-9             [1, 64]                   --
│    └─Hardtanh: 2-10                    [1, 64]                   --
├─HardMGUCell: 1-13                      [1, 64]                   (recursive)
│    └─ScaleHardsigmoid: 2-11            [1, 64]                   --
│    └─Hardtanh: 2-12                    [1, 64]                   --
├─HardMGUCell: 1-14                      [1, 64]                   (recursive)
│    └─ScaleHardsigmoid: 2-13            [1, 64]                   --
│    └─Hardtanh: 2-14                    [1, 64]                   --
├─HardMGUCell: 1-15                      [1, 64]                   (recursive)
│    └─ScaleHardsigmoid: 2-15            [1, 64]                   --
│    └─Hardtanh: 2-16                    [1, 64]                   --
├─HardMGUCell: 1-16                      [1, 64]                   (recursive)
│    └─ScaleHardsigmoid: 2-17            [1, 64]                   --
│    └─Hardtanh: 2-18                    [1, 64]                   --
├─HardMGUCell: 1-17                      [1, 64]                   (recursive)
│    └─ScaleHardsigmoid: 2-19            [1, 64]                   --
│    └─Hardtanh: 2-20                    [1, 64]                   --
├─Linear: 1-18                           [1, 5]                    320
==========================================================================================
Total params: 906,192
Trainable params: 906,192
Non-trainable params: 0
Total mult-adds (M): 40.45
==========================================================================================
Input size (MB): 0.00
Forward/backward pass size (MB): 0.44
Params size (MB): 3.62
Estimated Total Size (MB): 4.07
==========================================================================================
…
